app/src/main/ml/traffic_sign_real_time.tflite (tflite, 192740 bytes, 10 tensors)

sequential/conv2d/BiasAdd/ReadVariableOp f4 [6]
00000000: 04b0 493d aa51 3d3e 394c 1ebe ab6c 61be
00000010: 1eee df3d 54e4 083e
0.049240127 0.18488184 -0.15458764 -0.2201411 0.10934089 0.1336835

sequential/conv2d_1/BiasAdd/ReadVariableOp f4 [16]
00000000: 58c6 0d3e b0ec b73d dbae 4f3e 86be ef3d
00000010: e2f0 0b3e ec38 d43d 4258 ad3c 51fb 8fba
00000020: b7cf 643e 3003 7a3d db7c ca3d 5dba 863c
00000030: c0dd da3c 368f 7a3d 96f9 003e cac4 153e
0.13845193 0.089806914 0.20281546 0.11706261 0.13666108 0.103624195 0.021160249 -0.0010984932
0.22344862 0.061038196 0.098870955 0.016446287 0.026717067 0.061171733 0.1259521 0.1462585

sequential/conv2d/Conv2D f4 [6, 5, 5, 1]
00000000: 9a60 c1bd 75cb ac3d 0d6f 333e 70a7 cb3e
00000010: 2912 b83e 06c0 043d cc41 553e 1151 ad3e
00000020: 224b a73e 1645 bd3e c2aa 62be 03da 40be
00000030: 7f3e b03d 14df 1bbc 93e4 533e f8d0 acbe
00000040: 6df2 85be 8351 b2be 763b 86bd 8458 d63c
00000050: 67a3 4dbb f4a1 92be dcfb 86be 40e1 a1be
00000060: 5c55 75be 874e bcbe 0791 86be 1517 8dbe
00000070: a987 0abf 3f8e 05bf f8a6 10be db8e a7bd
00000080: cb98 01be 9163 43be a115 84be 6bdb 3fbd
00000090: a80d 0f3e 9623 a23e 7c16 b93e ea1e 1c3e
000000a0: 8a48 1d3e bc0d 0c3e 935c 3d3e 6204 a13e
000000b0: 0872 4d3e 299a dc3c de78 113d 46c4 bf3e
000000c0: 6649 c73e 2d0f 4a3e ec2b de3d 4951 6bbc
000000d0: fe4f 0dbd 18cf 9f3e 3f72 903e b16e 873e
000000e0: a43b 77bd 98cc 44be fae7 df3d d4a5 a83e
000000f0: f804 a93e 871a 94be 97e3 e5be ca52 adbe
00000100: 4678 9abd c953 df3e 6229 1fbe c693 90be
00000110: d2f9 e9be 6c31 bfbe 278f 1a3f 0be0 a63e
00000120: 4019 2abe ec72 e6be f908 1bbe 6af0 8c3e
00000130: 037a e6bd 9f5a b23d 0834 4a3d 3eb5 3e3d
00000140: 7c6f e5bd 1c3f 59be 9fbe 88be 68cd 93be
00000150: d749 a1bd 8d8c 003e 7a82 08be 61c7 6abe
00000160: b294 23be e407 6abe a66d 8d3e b015 5b3e
00000170: a054 723d 26de 2dbe 4326 89be 7636 c43e
00000180: 22b3 0d3e 2392 873e ffff 10be b917 40be
00000190: 1af2 16be 7d35 463d 3157 f83d afa6 543d
000001a0: 5218 af3d 76a9 d8be 4cd6 15be b7e6 a13d
000001b0: 4386 bc3d db79 a63e 29d9 cbbe 1b3a 4cbd
000001c0: 4eb5 083d c4bd 633e a75c 053f 0bb7 96be
000001d0: 6502 c2be 17b2 25be 840b b93e cf6c 033f
000001e0: 5f6c 0dbe 3ed2 c3be 5ff7 4fbe 8eb8 8abd
000001f0: 4f7a bc3e ebd1 d4be 3016 0abf fa2b f6be
00000200: 0843 afbe ce7c c1be 55c5 40bd 237c dabc
00000210: f9e1 be3d 3903 db3d af49 653d e9ae f6bb
00000220: 649a 963e a664 ca3d be1c 3d3e d9a5 8c3e
00000230: ac24 273e 3f2b b43d e73d b43e 94de c23e
00000240: 7860 983e 6dfb 503d 6fb9 e3bc 172b 81bd
00000250: be2f e5bb 875e b83c
-0.094422534 0.08437244 0.17522831 0.39776182 0.35951355 0.03240969 0.20825881 0.3385091
0.3267451 0.3696677 -0.22135451 -0.18833165 0.0860567 -0.009513635 0.20692663 -0.3375318
-0.2616152 -0.34827814 -0.0655431 0.026165254 -0.0031377913 -0.28639185 -0.26364028 -0.31617165
-0.23958343 -0.36778662 -0.26282522 -0.27556673 -0.5411325 -0.52170175 -0.14126194 -0.081815444
-0.12655942 -0.1908095 -0.25797752 -0.046840113 0.13970053 0.31667775 0.36149967 0.15246168
0.15359703 0.13677114 0.18492346 0.31448656 0.2006303 0.026928978 0.03551566 0.37454432
0.38923186 0.19732352 0.10848221 -0.014362642 -0.034500115 0.31212687 0.28212163 0.26451638
-0.060359612 -0.19218671 0.10932918 0.32939017 0.33011603 -0.2892649 -0.449002 -0.33852226
-0.075424716 0.4361861 -0.1554313 -0.28237742 -0.4569841 -0.37342393 0.60374683 0.32592806
-0.16611195 -0.45009553 -0.15140142 0.2752717 -0.11253741 0.08708691 0.049366027 0.046559565
-0.112029046 -0.2121548 -0.26707932 -0.2886765 -0.07875412 0.12553616 -0.13331023 -0.2292762
-0.15974692 -0.22854573 0.27622718 0.21394992 0.059162736 -0.16979274 -0.26787004 0.383228
0.13837865 0.2647868 -0.14160155 -0.1875905 -0.14740792 0.048390854 0.121260054 0.051916774
0.085495606 -0.42316788 -0.14632529 0.079053335 0.09205296 0.32514843 -0.39814118 -0.0498601
0.03337603 0.22240359 0.520945 -0.29436526 -0.37892452 -0.16181217 0.36141598 0.51337904
-0.13810872 -0.3824634 -0.20309208 -0.06773482 0.36812064 -0.41566405 -0.53940105 -0.48080426
-0.34230828 -0.3779053 -0.04706319 -0.026670521 0.093204446 0.10693974 0.055978473 -0.007528175
0.29414666 0.098824784 0.18467996 0.27470282 0.16322583 0.08797311 0.35203478 0.3806044
0.297611 0.05102103 -0.027798383 -0.06307047 -0.0069942167 0.022506012

sequential/conv2d_1/Conv2D f4 [16, 5, 5, 6]
00000000: 7fa9 763a 8ad8 71b8 758d d03d 4ca2 843c
00000010: 33e3 3cbe 66ea eabc 875c 9b3d f474 303d
00000020: ca57 773d edc6 e23b 805d 2bbc d70d b6bd
00000030: 64f7 193e 055c c03d bed5 f1bc abf8 08be
00000040: 34f3 b43d c003 d13d a943 203d cf14 b63d
00000050: 5bde 96bd bf05 19bc 2655 24bd 03ac da3d
00000060: e852 22bd f206 1d3d 7362 f53d 53a2 033e
00000070: 401c 2abe 1d9a ab3d 0791 8dbd abf1 0a3e
00000080: 3cff b3bd 9af3 da3d cd82 32be 9e97 f33b
00000090: 6362 e6bd fde3 1d3c 5152 633d 6490 513c
000000a0: 4ce0 8bbe 6da0 39be c87f 833e 89b4 fb3c
000000b0: eaaf e13d 0424 ab3d 3f12 733e f4e0 c1bd
000000c0: be7f 643e 926a 6cbb a407 f7bd be24 b83c
000000d0: 8050 5d3d 9a77 f0bd fd81 3cbe 3f7c a2be
000000e0: 319f 183d aadc eb3d dafc 63be 7734 29be
000000f0: 54c4 123e 5b13 bd3e 25dc c3bd 71ce 0cbd
00000100: 8e83 68bd 1f22 703e 99f3 533d 9d7e 4b3e
00000110: 384c 94bc a830 483d b2c9 3fbe aa0d ca3e
00000120: a944 373e b14e bf3c 60ca 5e3d 94ed 9e3d
00000130: 19d1 723d e519 993e e1a3 223e d27e d9bd
00000140: 2c25 bfbc 8654 b8bd 5022 6e3d e03a 35bd
00000150: 256a ccbe acb6 bebe 2e4e 23bd 7986 103e
00000160: 2955 79be bc85 c4be 1531 c63e 95c2 6c3e
00000170: b09d a63d 3099 bebd f675 b9bd 9feb 693e
00000180: 98ce 1e3e b110 b03d 6fef e63d 0824 f33b
00000190: 6098 9cbe 4f70 793e b216 603e f693 32be
000001a0: a0a6 0d3e 98c0 803d bf55 30be b0ea 453c
000001b0: d3fd 003e 7c78 7e3d 6453 74bd bc9c 2cbe
000001c0: 90fb 9e3e 52e7 4f3d 8c8c 90be b537 143e
000001d0: 101e 58bd 2d27 f73d 25d3 e53b 1866 9a3d
000001e0: 720d 02be 394f 0e3e 80d9 d43d b0c4 443d
000001f0: a99b 8cbe aa91 383e 25f9 10be fa58 97bd
00000200: e1ee 413e 798e 183e 68f6 29be 32ec d6bd
00000210: 305c db3d 9eb8 35be 9cfd 2d3e 7a16 35bd
00000220: c882 85bd ce60 1cbe 947e bd3e 5739 d13b
00000230: 2b9b 963d 7f93 663d 880c d43e 4bad 703d
00000240: aafe bb3e 54fc 05bc fa86 38bd 5c40 27bd
00000250: fc33 ef3e 58f7 763e be83 923d 33a0 25be
00000260: fb77 e93d ae00 233d 5cf5 b83c f56f 0ebd
00000270: 6f01 163d 50ac f8bd 0bbf 293d 4ed6 123e
00000280: b5d0 0a3c 7557 90bd 66e9 51bd 812e 4f3d
00000290: 2225 fd3d 2c43 e03c b1ab 123e afd6 2f3d
000002a0: dded 053d 89a0 2dbb 923e 203e 3eaa 523e
000002b0: 2d5a 91bd a986 29bd 89cc b23d 8f22 9f3c
000002c0: f4a5 86bc d8d8 363e 63f3 09bd 4a10 9b3d
000002d0: b1c7 753d 0d73 45be 3f68 5f3e f0d3 483e
000002e0: 6676 6dbd 3398 10be a6e8 dc3d 4514 26be
000002f0: a1db 003d 55a9 113d 165f 7c3e 597f 3ebd
00000300: 12c0 223d cb61 cdbc 4ed5 fa3d 2c1d a53d
00000310: 7f98 183e 0833 f73d 4d37 b1bd 6f68 343d
00000320: a763 253e 0fd5 203e dec3 483e 18bb 9d3d
00000330: 601f dabd 0fa7 ddbc 4272 d13d 13da 823d
00000340: 78f4 efbd 8be6 1d3e 6707 37be 9ab0 3abe
00000350: e8c7 0a3d 281f f83d 4102 be3d 1b8f 5dbe
00000360: fdda e4bd 38af 0dbe f395 2c3e ab8e 4a3e
00000370: 1303 2b3e c5ae 84be 6d28 073e 2575 82be
00000380: b2d5 fd3d dfea 413e 3912 9c3e 764b 6bbe
00000390: d469 b73d fd2a 78be 2ed8 e93d 9465 f73d
000003a0: 1131 67b8 423f 71be 20c5 10be 950b 15be
000003b0: a9a0 d03d 4289 f73d 3a14 8cbb c232 29be
000003c0: a3c3 f9bd a66b bbbb 58ed 993c beb9 0e3e
000003d0: 275d 563d 60cc 1abe a7e0 41be 477f cbbd
000003e0: 93d5 753d 96a7 d93d f977 083e 9d8f 3bbe
000003f0: 9770 433d 5a63 91bd 74c3 b33d 71e3 733d
0.0009409412 -5.7660545e-05 0.10183231 0.01619067 -0.18446045 -0.028676223 0.075860076 0.043080285
0.060386457 0.0069206865 -0.010459304 -0.088893585 0.15035778 0.09392551 -0.029520866 -0.1337611
0.0883545 0.102057934 0.039127026 0.08890688 -0.0736663 -0.009339749 -0.040120266 0.1067734
-0.039629847 0.0383367 0.11981668 0.1285489 -0.16612339 0.08379004 -0.069124274 0.13568752
-0.087889165 0.106909946 -0.17432709 0.0074338457 -0.112492345 0.009636876 0.055498425 0.012790773
-0.27319562 -0.18127604 0.25683427 0.030725734 0.11019881 0.08356479 0.23737429 -0.094667345
0.22314355 -0.0036074263 -0.12062004 0.022478458 0.05403185 -0.11741562 -0.18408962 -0.31735417
0.03726119 0.11516698 -0.22264424 -0.1652392 0.14332706 0.3692883 -0.095634736 -0.034376565
-0.056766085 0.23450516 0.051745985 0.19872518 -0.01810275 0.048874527 -0.18729284 0.3946355
0.17897286 0.023352953 0.05439222 0.07760158 0.059281442 0.29902568 0.15882827 -0.10619892
-0.023333155 -0.090004966 0.05813819 -0.0442456 -0.39924732 -0.37248743 -0.03986948 0.14113797
-0.24348892 -0.3838328 0.38709322 0.23121102 0.08135545 -0.09306562 -0.090557024 0.22843789
0.15508497 0.08596934 0.11276137 0.0074200667 -0.30585003 0.24359249 0.21883658 -0.17439255
0.13833094 0.06286734 -0.1722021 0.01207988 0.12596826 0.06212662 -0.05964984 -0.16856664
0.31051302 0.050757714 -0.2823223 0.14474376 -0.052763045 0.12068019 0.007013696 0.07539004
-0.12700441 0.13897409 0.10393047 0.04803914 -0.2746251 0.18024316 -0.14157541 -0.07390018
0.18938781 0.14898099 -0.16597903 -0.104942694 0.10710943 -0.17746207 0.16991276 -0.04421089
-0.06519085 -0.15271303 0.37010634 0.0063850093 0.07353815 0.056293007 0.4141581 0.058759015
0.3671773 -0.0081778355 -0.0450506 -0.040832862 0.46719348 0.24117792 0.07154034 -0.16174392
0.113998376 0.03979557 0.022577934 -0.03477474 0.03662246 -0.12142241 0.04144196 0.14339563
0.008472611 -0.07047931 -0.051247977 0.05058146 0.12360598 0.02737578 0.14323308 0.042929348
0.032697547 -0.0026493391 0.15648869 0.20572755 -0.07097278 -0.041388188 0.08730418 0.019425659
-0.016436554 0.17856157 -0.033679377 0.07571466 0.060004894 -0.1928217 0.2181711 0.19612098
-0.05797424 -0.1412056 0.10786562 -0.1621867 0.031459454 0.03556188 0.24645647 -0.046508167
0.039733954 -0.025071045 0.12247716 0.08062205 0.14901923 0.1207028 -0.08653126 0.044044908
0.16151296 0.15706275 0.19605967 0.07701701 -0.106505156 -0.027057199 0.10226871 0.063892506
-0.117165506 0.15419976 -0.17873918 -0.1823143 0.03388205 0.121153176 0.09277774 -0.21636622
-0.11174581 -0.13836372 0.16854076 0.19780986 0.16700391 -0.2591459 0.13199015 -0.2548
0.12394275 0.18937252 0.30482653 -0.22978005 0.08955732 -0.24235149 0.11418186 0.12079921
-5.512039e-05 -0.23559287 -0.14137697 -0.145552 0.101868935 0.12086727 -0.004274872 -0.16523269
-0.12195518 -0.00571962 0.018789932 0.13938043 0.05233493 -0.15117025 -0.18933354 -0.099363856
0.060018133 0.106276676 0.13327016 -0.18316503 0.047714796 -0.07099028 0.08777514 0.059543077

sequential/dense/BiasAdd/ReadVariableOp f4 [120]
00000000: caef 693b a499 76bc eab7 3fbd 5288 913d
00000010: 8a52 8fbd 2cc7 73bd 6a80 abbc b83a 833d
00000020: 0ca9 003e eea2 69bc f72c 103d f8ab a2bc
00000030: 6cbc 58bd 4caf 873d 34a5 cbbc 910b adbd
00000040: ed2b 4abc ca55 dabc 2e29 313c ccb6 8c3d
00000050: 5f95 1ab9 802f 193e 4a62 9a3d 5b11 163c
00000060: b537 153d 6c49 0bbd 4d52 14bd f534 8fbc
00000070: 907f 27bc ae74 57bd 5a9e 3fbc 055e 1c3d
00000080: 8938 863d 10b3 1b3c b7d2 8c3d fa14 ec3d
00000090: 88c7 10bc 4ae1 a13c 1fcb ce3d cfea 3a3c
000000a0: 0ef4 293d 6c9f 9fbd 36ce 9f3d 2ac1 25bd
000000b0: b588 f93c 40fd 733d cfaf 8fbb d3c8 ed3d
000000c0: 21f5 a33d f01d 7fbc 3ea3 30bd 87ce 8c3d
000000d0: 60e3 de3d 37c6 8ebc f85f fe3c 8795 2f3c
000000e0: e478 143e b596 39bd 2969 e4bb 4294 42bd
000000f0: 9a2f a93d c4be 8a3d 75bf 94bd 29d0 7fbd
00000100: b05d 333d d505 9e3d da01 da3c b50d 103d
00000110: 582d da3d 50f9 953d a7ab 603d 2825 9b3d
00000120: 382f 51bc ed65 fbbc 8400 b1bc 3c0c 6dbc
00000130: 794f 4cbc cf56 5fbd 1329 b53d a1f2 053c
00000140: 43e4 a6bc 367d 21bc ced8 173d 2a7c 84bd
00000150: 4b97 9e3d 9f48 933d ed83 8d3d f240 a7bc
00000160: 57ab 93bc 6a81 1ebc 8ee8 86bd 4663 d23d
00000170: bcd9 e03b b104 d93d fe72 adbc 35e7 ce3c
00000180: 81ec c73d 275d 9cbb 231a fd3d 9ecb 5ebc
00000190: 0a16 26bd 9bd5 c7bd eb82 41bd c15f e1bd
000001a0: 5f80 173d 798c 813d 9d5e 07bc e1c8 373d
000001b0: f43e 6d3d ab84 b8bc b0ad bdbc 14f3 343d
000001c0: 3658 4cbd 80af 91bc 82f2 6a3d 5f10 46bc
000001d0: 2c4f 9a3d d468 cd3d 8456 ab3d 2383 c9bc
0.0035695904 -0.015051279 -0.046806253 0.07106079 -0.06998165 -0.059516117 -0.020935256 0.06407684
0.12564486 -0.014260037 0.03519913 -0.019857392 -0.052914068 0.06625232 -0.024859048 -0.08449472
-0.012339574 -0.026652236 0.010813041 0.06870803 -0.0001474223 0.14959526 0.075382784 0.009159411
0.03643008 -0.034005567 -0.0362113 -0.017481307 -0.010223284 -0.05260151 -0.011695469 0.0381756
0.06553752 0.009503141 0.06876128 0.115274385 -0.008836634 0.019760747 0.10097336 0.011408522
0.041492514 -0.07794079 0.078030035 -0.04046742 0.030460695 0.05956769 -0.0043849717 0.1161057
0.08005739 -0.0155711025 -0.04312443 0.068753295 0.10883212 -0.0174285 0.03105162 0.010716802
0.14499241 -0.04530974 -0.006970544 -0.04750467 0.082610324 0.06774667 -0.0726308 -0.062454376
0.04379052 0.07715956 0.026612211 0.035169322 0.1065318 0.07322943 0.0548512 0.07575446
-0.0127676055 -0.03068825 -0.021606691 -0.014468249 -0.01247012 -0.054526147 0.08845725 0.008175523
-0.020372516 -0.009856513 0.037071995 -0.06468995 0.077437006 0.07191586 0.069099285 -0.02041671
-0.018026037 -0.009674409 -0.06587325 0.10272841 0.0068618935 0.10596598 -0.021172997 0.025256732
0.097619064 -0.004771847 0.12358501 -0.013598351 -0.04054836 -0.09757539 -0.047243994 -0.11004592
0.03698766 0.06325621 -0.008262304 0.044869307 0.057921365 -0.022524199 -0.02315411 0.04417713
-0.049888812 -0.01778388 0.05736018 -0.012088864 0.07534632 0.1002976 0.08366111 -0.024598664

sequential/dense_2/BiasAdd/ReadVariableOp f4 [43]
00000000: 1fa0 8fbd 8df1 913d 7de7 183d 6b55 0e3d
00000010: b798 06bd fa47 c13c c69d 833d 5564 82ba
00000020: f542 913b f04f 76bc 14be cdbd 9917 51bd
00000030: 0b38 653d 7eba cb3c 5c3c 8e3c a13e c23d
00000040: 8004 49bd a3a7 a0bd fa41 c13d 0de7 9cbd
00000050: 20f2 b43d 9704 a0bd e70a bfbd 1d8a ebbd
00000060: a0ce c23d aff5 853d 8c42 2abd fce0 683d
00000070: f80d 3f3c bf5b 843d 82af a53c 1b71 893d
00000080: 1f77 f83d 0af7 05bd 5156 41bd 16d2 7dbd
00000090: 824b 20bc f63a 3dbd 95df 4bbd dabb 45bc
000000a0: 0313 36bd 492f c8bd 9847 c5bd
-0.070129625 0.0712615 0.03733014 0.03474943 -0.032860484 0.023593891 0.06426577 -0.0009948114
0.0044330307 -0.015033707 -0.1004602 -0.051047895 0.05596165 0.0248692 0.017362766 0.09484602
-0.049076557 -0.07844474 0.09436412 -0.07661257 0.08835244 -0.078133754 -0.09328251 -0.115009524
0.09512067 0.06541001 -0.04156737 0.056855187 0.011661045 0.06462812 0.02022529 0.06711026
0.121320955 -0.032706298 -0.04720146 -0.06196793 -0.009783627 -0.046198808 -0.04977377 -0.012068713
-0.044451725 -0.09774644 -0.09632796

sequential/dense_1/BiasAdd/ReadVariableOp f4 [84]
00000000: 5822 11bd f95f ac3d 7941 d83d b973 5ebd
00000010: bdf6 5bbd 0c85 8e3d 81ad d83b 97ae 1f3d
00000020: 91fe 5dbc 5632 633c af2f 35ba c74d 453d
00000030: ee47 253d e89e a03d 2d1a fbbb 5357 393c
00000040: 3e48 b23d 5b67 a93d e181 0bbd a7f6 953d
00000050: 4878 1cbc b7bb 083d 00cb c03d 22c5 563d
00000060: 6fea 193d bc03 5ebd 752f 89bc 6c24 44bc
00000070: 5a53 a9bc 13bb eebc fb3a c7bb b456 6c3d
00000080: 3d62 c1bc 2874 14bd 8256 033d ad67 4cbd
00000090: 2fe4 fb3c 848b c9bc c011 343d eece 963c
000000a0: 6cde 35bc 4c98 45bd 6e2e 17bb cd3a 4bbc
000000b0: fb5a 87bd 2370 afbd d54c 863a 3a21 5c3d
000000c0: 4caa d23d 2273 21bc 60ea ed3d 8918 a83d
000000d0: 25fe 4a3d 3446 bf3d ad98 5ebc 25bf 223d
000000e0: f4bd ce3c 533b 9d3c 2e62 a33d ccee 7fbc
000000f0: b3d1 c13c 936b a33d 9d3f 60bc b3b3 3d3d
00000100: 3958 8c3d 433e fc3c b99a 3abd a2bd 2c3d
00000110: b3a1 82bc 70ed 2f3d cbd8 c43d 422e 8e3d
00000120: 31d8 ff3d 64ec 963d 9cae 1cbc b55f 6c3c
00000130: 8bda 113d 50d7 28bc b50a 543d bbf1 dabb
00000140: de88 0dbd d5dc 833d 10e5 17bd e1ef 903c
-0.035433143 0.08416743 0.10559363 -0.05430958 -0.053702105 0.069589704 0.00661248 0.03898486
-0.013549463 0.0138669815 -0.00069117075 0.048169877 0.0403518 0.07842809 -0.0076630325 0.011312324
0.08705185 0.082716666 -0.03405941 0.07322436 -0.009550162 0.033382144 0.09413719 0.052434094
0.03757709 -0.05420278 -0.016746262 -0.011971574 -0.020669628 -0.029141938 -0.006080029 0.057699874
-0.023606414 -0.036243588 0.032064922 -0.04990356 0.030748455 -0.024602659 0.04396224 0.018409219
-0.011100393 -0.048240945 -0.0023068446 -0.012404156 -0.0660915 -0.0856631 0.0010246286 0.053742625
0.10286388 -0.00985411 0.11616969 0.08207805 0.049558777 0.09339562 -0.013586205 0.03973307
0.025237061 0.019193327 0.07977711 -0.015620898 0.023659563 0.079795025 -0.013687042 0.046313953
0.06852765 0.030791407 -0.04555771 0.042173035 -0.015946245 0.042951047 0.096116625 0.06942417
0.12492407 0.07369307 -0.0095631145 0.014427115 0.03560881 -0.010305241 0.051768024 -0.0066816485
-0.034554355 0.06438605 -0.037083685 0.017692508

sequential/dense/MatMul f4 [120, 256]
00000000: b257 823c 3c42 adbc 9738 c03d 6617 3cbd
00000010: 6105 5d3d f741 aa3b a2ce 05be 7040 933d
00000020: 79db bfbc d892 163e 6372 ae3d 1075 a1bd
00000030: f2e0 96bc 4d73 c63d 5f43 4f3c 77ba 603d
00000040: b216 18bd 3955 6abc 6c1e bc3c dda8 18bd
00000050: d8fa a73d 65e9 6d3d 6143 83bd 64e3 4cbd
00000060: dce1 ad3c a925 283e 3382 04be 4bb9 ccbc
00000070: 2153 9c3d 74b7 c6bc 66b0 a83d 4f27 3a3d
00000080: a0f2 69bd 18a7 fdbb afd6 2f3c 873a 833d
00000090: 3e57 09bd 33ba d63d 2053 783c a45b 753d
000000a0: 24d2 1d3e bd61 443c 728b a93d bbf6 04be
000000b0: 84b3 813d 237d 63bd f306 453d fd31 cfbd
000000c0: 1cc1 98bd a2fd 99bd 61f1 bf3c a9a0 173d
000000d0: 21ec 5ebd 8a97 01be 2f98 ae3c a33f 4a3c
000000e0: aeb8 4bbd cc07 61bd b91f 68bc 35d7 3c3e
000000f0: 11c8 0bbe f7d8 093d 0a47 f4bd eb8b 86bc
00000100: 9973 833d 0def 0bbb 6abd fabd 6978 ae3d
00000110: 492f 4c3d 10d0 8e3d 5ff7 14bd 0195 7fbc
00000120: 514e 503d e21f c83d 455f 233d 16fd 8f3a
00000130: 1714 b83d 5609 da3d 2722 683d c696 3e3b
00000140: ee4f b83d c5e7 df3d eb0e da3c b246 ffbd
00000150: ce23 ef3d 9c8b 2b3e b02f 36be fb94 73bd
00000160: 4bc0 243e e4ff 3fbe 55c6 55be 26c7 fcbd
00000170: ee73 58bd 3146 8ebd bb80 d73d 19a0 34bd
00000180: ed58 abbc 0cca 3c3c 5a42 923d 7e51 28be
00000190: 9f6f 793d f28f ca3d b0b6 ce3d de81 293d
000001a0: 1f8a 823c 4e1e 9bbc cf8f 9f3d 3b1a a6bd
000001b0: db50 f2bd 42cc 573d d673 93bd ae95 31be
000001c0: e818 213e 431b a73b a551 743b 10bb 353e
000001d0: 2ae4 1e3e a9d6 59bd b32e bfbc 7d05 34bd
000001e0: 5296 e03d 69c9 29bb 1911 eb3d ed3a 463e
000001f0: 1adc 203c a35a a3bc c31a 40bd ec98 863d
00000200: 557a d2bb e7ac 483d 0307 d13d 3bd1 1e3d
00000210: 7cbb 0fbe 6893 c03d 41c3 0fbd 31bd 7d3d
00000220: 3efe 553c c42a 0e3d 86d1 8dbd 426b a6bd
00000230: 2c9c 39be 8fea 013e edde 343e cbd2 4ebe
00000240: 227a d03d e251 cebd 72c9 a63e c173 a7bd
00000250: 8741 813d 23ba cebc 44b3 d33d 8dc7 623d
00000260: e04f f7bd e494 84bb 2e39 7d3e a388 d3bc
00000270: f64b 683c 9944 423e 2597 f93d 0975 9bbd
00000280: 2781 9cbd 6cdd 133e 5f1f b83d 94e3 ab3d
00000290: e446 cc3d 08cd 61be 259b 103e 2f0d 68bd
000002a0: ad0c e0bd c577 d8bd 8d2e 9b3a 7048 1e3e
000002b0: 8729 0e3e 7171 9b3d b238 d9bd 5e5a 843e
000002c0: b5de 0e3e 2c94 173e 6175 8cbd 53e8 183d
000002d0: f76e 9f3d fdc3 803c 503e 44be 63cf 68bd
000002e0: 7ab6 2bbe 1288 9ebd c023 41be b7ff 85bd
000002f0: 84ee 583d 8c6c a9bd 4b2c 303e 6c09 b13d
00000300: aecc 56ba d974 cf3c c79b a83c 3eac cfbc
00000310: 7833 ac3d 0ecb 6d3d e51c 1ebd 32bb a0be
00000320: 55f1 eb3c 8738 123d 00ff 203d 9e78 aebd
00000330: f76e e63b 2fe9 203e 576e 49bd 7905 f3bd
00000340: 150f 89bd b0c1 8c3d d617 e3bd a116 6bbc
00000350: 1e75 0b3d f391 c83c 717e 083e dcfa 9cbe
00000360: 8ee2 b33d 6036 d23c b7e3 883e 5e9f 94bc
00000370: 9bea 92bd bb75 973d 9037 60be 00f8 18bd
00000380: ebb0 c73d 2f27 d93d 5c25 54be cc71 1d3e
00000390: dde6 1d3d 2e11 223e 0547 8dbd f5e7 85bd
000003a0: 4a92 88bd 71f1 f9bd 2b67 adbd 381f 043e
000003b0: 64fe 873d a937 8abd 0575 83bc c166 f03d
000003c0: 3a33 a7bd 4027 c53d a6cc 00be e796 92bc
000003d0: 2870 86bd 3aeb a13d 6c1f e7bb d794 823c
000003e0: 6e26 fbbd 859b 903d 3a7c bcbc 7ec9 203e
000003f0: 3d83 fbbb 5315 833e 7cb4 b53c 9c7e 853d
0.015910957 -0.021149747 0.09385794 -0.045920752 0.053960208 0.005195852 -0.13067105 0.07190025
-0.023420082 0.14704454 0.08517911 -0.07883656 -0.01841781 0.09689961 0.01265034 0.054865327
-0.03713102 -0.014302545 0.022963725 -0.037270416 0.082021415 0.05808391 -0.06409336 -0.050021544
0.021225862 0.16420616 -0.12940292 -0.024990698 0.07633043 -0.0242574 0.0823677 0.045447644
-0.05711615 -0.0077408664 0.010732337 0.064076476 -0.033530466 0.104847334 0.015156537 0.05990185
0.15412194 0.011986193 0.0827855 -0.12984745 0.06333068 -0.05553926 0.04810233 -0.101169564
-0.07458708 -0.0751908 0.023430528 0.03701845 -0.05442441 -0.12655464 0.021312801 0.012344274
-0.04973667 -0.054939076 -0.0141677195 0.1844147 -0.13650538 0.03365418 -0.11927612 -0.01642414
0.06418533 -0.0021352202 -0.12243159 0.0851906 0.049849782 0.069732785 -0.036368724 -0.01559949
0.05085594 0.09771706 0.039885778 0.001098546 0.08988207 0.10646312 0.056673195 0.0029081567
0.089996204 0.109328784 0.026618442 -0.12464656 0.11676751 0.16752476 -0.17791629 -0.05946825
0.16088979 -0.18749958 -0.20876439 -0.12342672 -0.052844934 -0.06946982 0.105226 -0.044097994
-0.020916427 0.011522781 0.07141562 -0.16437337 0.060897466 0.09890737 0.100934386 0.041383617
0.015935002 -0.018935349 0.07791101 -0.08110472 -0.11831828 0.05268503 -0.07199828 -0.17342255
0.15732157 0.0050996854 0.003728011 0.1774714 0.15516725 -0.05318323 -0.023337698 -0.043950547
0.10966171 -0.0025907403 0.114778705 0.19358416 0.009818101 -0.01994068 -0.046900522 0.06572136
-0.0064232745 0.048993018 0.102064155 0.038773756 -0.14036363 0.094031155 -0.035098318 0.061948005
0.013061104 0.034708753 -0.06924729 -0.081259266 -0.18125981 0.12687133 0.17663164 -0.20197599
0.10179545 -0.10074212 0.32575566 -0.08176375 0.063113265 -0.025235241 0.103369266 0.055366088
-0.12075782 -0.0040460695 0.24728844 -0.02582199 0.014178267 0.1897148 0.12187032 -0.07590682
-0.07641821 0.14439934 0.089903586 0.083930165 0.09974459 -0.2205087 0.14121683 -0.056653198
-0.10939918 -0.10569719 0.0011839435 0.1545732 0.13883029 0.075899966 -0.10606517 0.25850195
0.13952143 0.14802617 -0.06858326 0.037330937 0.07784837 0.015718454 -0.19164395 -0.056838404
-0.16768828 -0.07740797 -0.18861294 -0.06542914 0.05296184 -0.08272657 0.17204396 0.08644375
-0.0008193952 0.025324272 0.020582093 -0.025350686 0.084082544 0.058054976 -0.038601775 -0.3139282
0.0288016 0.03569844 0.039305687 -0.085191 0.007032271 0.15713952 -0.049177494 -0.11866278
-0.0669233 0.068728805 -0.11088531 -0.014348657 0.03404724 0.024483657 0.13329484 -0.3066014
0.08783446 0.025660694 0.26736233 -0.018142398 -0.07173654 0.07395502 -0.21896195 -0.037345886
0.09750541 0.10603177 -0.20717376 0.15375441 0.038550247 0.15826866 -0.068983115 -0.06538383
-0.066685274 -0.122042544 -0.08466943 0.12902534 0.06640318 -0.067488976 -0.01604701 0.11738349
-0.081640676 0.09626627 -0.12578067 -0.017894221 -0.06564361 0.07906194 -0.0070533063 0.015940113
-0.12263189 0.07060913 -0.023008455 0.15701863 -0.007675557 0.25602207 0.022180788 0.065182894

sequential/dense_1/MatMul f4 [84, 120]
00000000: 53d5 263e d733 07be 8b37 153e 277e 09bc
00000010: cfc8 903d 07b6 a2bd 1220 033e e471 bd3c
00000020: a320 13be f189 1d3e d422 96bd 607f 69bd
00000030: e4cc b53d d164 6ebe acbe 233e 1556 74be
00000040: 30c1 2bbe e280 72bd ff0e 913d 8a40 e83d
00000050: f2a1 c7bc 4e62 8b3c d629 11be 7c70 94be
00000060: a688 573e 96a9 7c3d eda0 6a3d 80c6 e13d
00000070: ade4 933d a9bf 793e fe6a dd3d a1d5 5f3e
00000080: 63c5 863e ad11 883e 391c 573b c052 9dbd
00000090: 34fd 443e 441e 0fbe dfd1 2f3e c5d4 7abd
000000a0: 1671 fc3d 0c11 37be 6428 c1bd 2b06 8f3d
000000b0: 94c2 dfbe a079 e2bd 1162 17be 8c79 debd
000000c0: 5f5c 1d3e ea3d d0bc 39b9 1ebd 5d65 223d
000000d0: 6d56 97bd 1c5f 8e3d 0309 113e 4a91 983d
000000e0: f6c1 dcbd da26 023e 6ba8 96bd cdc7 b73d
000000f0: 1f57 b3bd eb6d 353e f40e b2bd 9912 82bc
00000100: bf0d b43d 289f 41be af92 3fbb 70e4 d4bd
00000110: dff2 923d b9bc 81bd 8b0e f2bd 142e 12be
00000120: e77f cfbd dd23 e53c 3b35 c73c 3555 8dbc
00000130: f136 66bd da6f 3bbe ed0b e6bd c299 e0bd
00000140: c59a 9c3c 4166 093d b3f0 353e 241d 043e
00000150: 2091 fd3d 4877 7bbd 64b7 8cbc d10e 11be
00000160: db26 2a3e 487e 03be d4db ad3d 7181 7bbe
00000170: 2293 a93d a578 6e3d 302d 0e3e d819 063d
00000180: 0707 78be 643e 873d d0b7 94bd 6a3b 4abd
00000190: 9fd6 843e bd10 613d 85e7 143e a878 463e
000001a0: 1329 65be f172 343e 9926 1fbd b67d f2bd
000001b0: ccc6 8abe fc4a cc3c c079 15be 9599 fb3d
000001c0: 37c4 a83d 7102 30be d702 8bbd d058 0e3e
000001d0: 701d 583e bf90 583e 9dc1 2e3c cf4f 3d3e
000001e0: 25ed fdbd b932 0c3e f980 ae3d bedc 08be
000001f0: f681 99b9 2305 6bbe 2d38 fabd 49cd 11bd
00000200: abab e73d 4380 ee3d b3d8 163e b282 033e
00000210: 93d2 883e 7b7b 373d 241e f13d 6bc9 b0bd
00000220: 575d 173e 482a a4bd 0b39 58bd 7497 073e
00000230: 9913 66be 8d21 fb3d 97b4 1f3d 24dd ae3d
00000240: ba5f 10be 0bbf 293e a448 223e bb59 acbd
00000250: 11a5 abbd 6e4a 113e d4e4 03be 5888 263e
00000260: 92e5 143d 2c2f 56bd d988 eb3d cfbf 7abd
00000270: 92f8 823d cca8 8bbe fff8 c2bd 2540 ef3c
00000280: 2e30 4bbe 3719 0ebe 2a10 813e 73d9 98be
00000290: a7b9 7bbe 0ce9 9cbc ef89 bdbd 03b0 cb3c
000002a0: 9ca2 2d3e e239 b53d 6a55 c5bd cc4f 463e
000002b0: 609f 6ebe b6e5 1fbd a8f4 6e3e 9ad8 4a3e
000002c0: c3b8 573e ea80 d2bd 3486 823d 5c65 2ebd
000002d0: 27a0 943d f5f8 2b3e 6f1f 503d 50f4 c6bd
000002e0: 9666 6bbe cdab 023e 8cf5 06be a3ad 00be
000002f0: fdeb 7d3e 8288 4c39 cafc bf3d dc55 eb3d
00000300: 458e ab3c 42b0 643d c024 ab3d 3f41 9f3d
00000310: f2f5 2abe 3ad5 febd 0e8c 4a3e 200b 4d3e
00000320: 92d4 743c 2062 cbbc dee5 64bd 9a66 703c
00000330: 07c2 c33c 795c 9abd 2213 103d db82 a23b
00000340: 0a9a 84be df29 24bd 4fd3 74bd d907 2fbd
00000350: 81ad 113d 189d 6e3d b009 593d 6847 16bd
00000360: 3be8 97bd c5a8 223e 369c 593e 0d54 493e
00000370: 592b ddbd aad5 50bd cff0 cfbd 3da1 46bd
00000380: c8f3 0a3e 1d6d c03c 73ef c3bc 0453 013e
00000390: d3b9 103e 006c 8dbe bc64 073e 4921 8ebd
000003a0: 6cec 4c3e 00fe 843d 256e 26bd 3d9f 2a3d
000003b0: 013f ba3e 9097 953e 479f ac3d 04ad 00be
000003c0: e798 0b3e 0f92 02be 069d 49be fea1 a2bd
000003d0: c220 2dbe a23f 80be 741f c03d 557e a9bc
000003e0: 056d 303e 0308 0f3e c1bc 333d ef8b 993d
000003f0: 89e5 fdbd 119c 7d3e 769d a1be 3753 03be
0.16292314 -0.13203369 0.14571969 -0.0083918935 0.07069551 -0.07944875 0.12805203 0.023125596
-0.14367919 0.15384652 -0.07330862 -0.05700624 0.088769704 -0.23280646 0.15990704 -0.23860963
-0.16772914 -0.059204943 0.070829384 0.11340435 -0.024369214 0.017014649 -0.14176115 -0.2899207
0.21048221 0.061685167 0.057282377 0.11024189 0.07221351 0.24389519 0.10811423 0.21858837
0.2632247 0.26575986 0.0032823218 -0.07681799 0.19237214 -0.13976389 0.17169903 -0.06123807
0.12326257 -0.17877597 -0.09431532 0.06983598 -0.4370314 -0.110583544 -0.14783503 -0.10863027
0.15367268 -0.025420148 -0.03875086 0.03964745 -0.07389531 0.069517344 0.14163594 0.07449587
-0.107791826 0.12710133 -0.07356342 0.08973656 -0.087568514 0.17717712 -0.08694258 -0.015878009
0.08791684 -0.1890837 -0.0029231717 -0.103951335 0.0717523 -0.06334824 -0.1181918 -0.1427539
-0.10131817 0.027971203 0.024317374 -0.017252544 -0.05620474 -0.18304387 -0.112327434 -0.10966827
0.019116769 0.033544783 0.177676 0.12901741 0.12381196 -0.061393052 -0.017177291 -0.14165808
0.16616385 -0.12841141 0.084891945 -0.24561097 0.082800165 0.058220524 0.13884425 0.03273949
-0.2422143 0.06603697 -0.07261622 -0.049373068 0.25944993 0.054947603 0.14541443 0.19381964
-0.2237895 0.17621972 -0.03885517 -0.11840384 -0.27104795 0.0249381 -0.14597225 0.12285153
0.0824055 -0.17188431 -0.06787651 0.13901067 0.2110498 0.21148966 0.010666278 0.18487476
-0.12398747 0.13691224 0.08520693 -0.13365456 -0.00029279263 -0.22951178 -0.12217746 -0.035596166
0.1131204 0.11645558 0.14731102 0.12842825 0.26723155 0.044795495 0.11773327 -0.086321674
0.147817 -0.08015877 -0.052788775 0.13241369 -0.22468413 0.12262259 0.038990583 0.08538273
-0.14099017 0.16576783 0.15848023 -0.08415552 -0.08381093 0.14188549 -0.1288026 0.16262949
0.036351748 -0.05229108 0.11500711 -0.06121808 0.06395067 -0.2727722 -0.095201485 0.029205391
-0.19842598 -0.13876806 0.25207645 -0.298534 -0.2458254 -0.019154094 -0.09254824 0.024864202
0.16956562 0.08848931 -0.09635432 0.19366378 -0.23302984 -0.03903743 0.23335516 0.1980919
0.21066575 -0.10278495 0.063732535 -0.042577133 0.07257109 0.16794188 0.050811227 -0.09714568
-0.22988352 0.1276085 -0.13179606 -0.12566237 0.24797054 0.00019505809 0.093743876 0.11490986
0.020941863 0.055832155 0.08356619 0.077761166 -0.16695383 -0.124430135 0.19779989 0.20023775
0.014943259 -0.024827063 -0.05588328 0.0146729 0.02389623 -0.07537169 0.035174496 0.004959447
-0.25898772 -0.040078994 -0.059771832 -0.042732093 0.035565857 0.058255285 0.052987754 -0.036689192
-0.07417341 0.15884693 0.21250996 0.19660969 -0.107992835 -0.050985016 -0.101533525 -0.048493613
0.13569558 0.02348953 -0.02391789 0.12629324 0.14133386 -0.2762146 0.13222021 -0.069399424
0.20012063 0.06493759 -0.040632386 0.041655768 0.36376193 0.29217196 0.08428817 -0.12566
0.13632546 -0.1275103 -0.19688806 -0.07941054 -0.16907027 -0.25048548 0.09380999 -0.020690123
0.17229088 0.139679 0.04388118 0.07497393 -0.12397296 0.24766566 -0.31565446 -0.12824713

sequential/dense_2/MatMul f4 [43, 84]
00000000: cb11 04be f4e6 56be 06d8 be3d 8051 b8bd
00000010: 83c2 cebd 9101 3dbe 7074 c1be 49b1 35be
00000020: 536f 1d3e dcfd ff3c a21f 0b3e d457 41bd
00000030: 70bb bb3d d6ad 1fbe 27ad 113e 7d3f 103d
00000040: 94ae 7b3e 93a3 74be 1597 a0bd 8356 70bd
00000050: 7f0f c23d eb61 e1bc e46d 8c3d 58d4 92ba
00000060: 82dd af3e c16d 8f3e 9b79 17be 3bfa 143e
00000070: eeb9 aebe 42ea 25bd 67fe 383e f698 ba3d
00000080: c126 4fbe 5326 55be 9f0d 1c3e fed2 11be
00000090: 7d1d 15be 3483 293e 9aa4 083d e81b c3bd
000000a0: 8ead 4abc 8d64 85bd b7f2 213e 122f cebe
000000b0: 2600 bf3e bb6e 3bbe d598 d9bd dd90 22be
000000c0: e720 553e bf93 843c 0c18 9fbe 9ced 6e3e
000000d0: eff7 6e3e a4c1 b6be 2fc5 f23d d461 433e
000000e0: e75b 553e 8e60 de3c a442 8d3d fa17 edbd
000000f0: d4b2 ee3d dddb 423e c66b e63b add6 6c3e
00000100: 94a6 68be a2ee 0c3e cece c8be fcaf e7bc
00000110: 7ee9 88bd 9258 a1bd 6a87 073e a01e 95ba
00000120: 0b04 103e 19be 933d 4bc0 8b3b 35e8 13bd
00000130: 39c8 dbbe 5379 e73b 3fb0 7d3d 07d2 9bbd
00000140: 8314 15bf 0b22 523e 68ed fabd c018 7bbe
00000150: 9ee1 dd3b 13b9 d4bd 77c5 823e 27e2 05be
00000160: b892 fcbd b027 d13c faf6 44be a717 9a3d
00000170: 0406 12be 826b 35be 51eb c73d 642d bdbc
00000180: 6dd8 e2bc 3b0f 3fbe 03ee e6bd 0f6c 803d
00000190: 4bb8 de3d c5d9 d33c 8ff0 c03d f2f5 e43d
000001a0: 5090 cdbc effb 91be d10e 463e 822f 2ebe
000001b0: 3331 0f3e 0e54 383e f71a 9a3d e480 e6bb
000001c0: 810f 593e 936b 3dbe 11bc c1bb d9dd b93d
000001d0: 0202 28be 0423 853d 57cd 9cbb 4814 43be
000001e0: ec71 d8bd 9824 e33d fe81 343e a857 353e
000001f0: ecaf e73c ad1f 86be c947 cc3d aaf0 59bd
00000200: 8bce 0e3e 464f 41be 1d74 043d 2ae3 78bd
00000210: b51a 1abd 68ed 3c3c 52ff 0f3e fb5a c83d
00000220: efdd 2d3e a466 563e af52 1abe fac1 b13b
00000230: ad1b 963e bec6 4dbe bf7c 603e 6d1b 48bd
00000240: 34ef ab3d 41d6 4e3d 3208 903e 03bf be3d
00000250: 1399 08be 4915 043e 74bd 54be 34f3 fcbd
00000260: fb24 17be 6b1c 1cbe a6e1 08be 334b df3d
00000270: abaa 833e be29 83bd 7b12 2ebe da47 033e
00000280: ad1c 65be ba6e 6cbd a362 c2bd 94c4 453d
00000290: 35fb a2be ab6f e63d 39b4 64bd 58f6 cb3c
000002a0: ce4b 0abd 601e 35be e394 963d 2570 41be
000002b0: 4a40 203d 496c 763e f50b 8f3d 7bc9 8c3d
000002c0: 6085 ffbb 5fb4 afbd 71bc a9bd 0ff4 70be
000002d0: 79d6 b8bd 135a 4fbd 3bf8 a0bd 95f6 9dbe
000002e0: f50a df3d aeae 46be 55b4 063e d599 e63c
000002f0: 6817 29be 9f2e e9bc a98d 863e 19bb 923d
00000300: a637 bebd 4f0d bdbc 550a 0abe 04a3 bcbd
00000310: ffde 9e3e fcbf 50ba 4be1 ba3d 449b 17bd
00000320: 1c94 c93d 98c7 47be 629c 2fbe 119d a9bd
00000330: 2ecf 77be e4c8 483e 8640 013d d598 863e
00000340: db19 253e b259 5fbe be65 f8bd 2a23 3f3e
00000350: b098 2b3e d342 1c3d 2a27 643e 6e6f ef3d
00000360: 9ac1 113c 7156 3ebe 38b6 173d ad84 703d
00000370: c83c 933d 68dd 4c3d cb61 993c aa53 5bbe
00000380: ae96 09be 6392 1e3e 5a29 43be e864 0a3e
00000390: 9561 893e 3850 163e 6a7d 2abc 6645 a13d
000003a0: 1319 febd 8e97 783e 180c 4fbd 6a7b 39bd
000003b0: 4556 b0bd 24fc c33d e85c 6fbb c60e 91bd
000003c0: 2791 733d 596d d8bd 8f0c c93d 5e43 2b3e
000003d0: 3749 d0bd 0106 58bd 5cf7 0dbb 49cb 44be
000003e0: 3837 35be 0c58 52be ef17 413e da4d 4abe
000003f0: c37d 90be 28f8 513e 8464 7b3e 08cd 723d
-0.12897412 -0.20986539 0.09318547 -0.0899992 -0.10095694 -0.18457629 -0.37784147 -0.1774341
0.15374498 0.03124898 0.13586286 -0.0472029 0.0916661 -0.15593657 0.14226209 0.035216797
0.24578315 -0.23890524 -0.078413166 -0.058676254 0.09475612 -0.027512511 0.068568975 -0.0011202199
0.34348685 0.28013423 -0.14792483 0.1454858 -0.34126228 -0.04050661 0.18065797 0.09111206
-0.20229627 -0.20815401 0.15239571 -0.14240643 -0.1456203 0.16553956 0.0333601 -0.09526807
-0.01237048 -0.06513319 0.15815245 -0.40270287 0.373048 -0.18303959 -0.106248535 -0.15875573
0.20813332 0.016183732 -0.31073034 0.23332828 0.23336767 -0.3569461 0.11854016 0.19080287
0.20835839 0.02714565 0.06897476 -0.11576839 0.116552025 0.19029184 0.0070318906 0.23128767
-0.22719795 0.13762906 -0.3922028 -0.028282158 -0.0668516 -0.078782216 0.1323525 -0.0011376925
0.14064042 0.072139926 0.0042648665 -0.03611012 -0.42926195 0.0070640235 0.06193566 -0.07608419
-0.58234423 0.20520799 -0.12252313 -0.2452116 0.0067712804 -0.103868626 0.2554128 -0.13074552
-0.12332672 0.02553162 -0.19234839 0.075240426 -0.14260107 -0.17716792 0.0976168 -0.023092933
-0.02769109 -0.18658154 -0.11275866 0.062706105 0.10874995 0.025860677 0.09420883 0.11179723
-0.025093228 -0.28512523 0.1934159 -0.1701031 0.13983612 0.18000814 0.075246744 -0.007034408
0.2119732 -0.18498068 -0.005912312 0.09075517 -0.16407016 0.06500819 -0.0047852206 -0.19050705
-0.10568604 0.11090964 0.17627713 0.1770922 0.028282128 -0.26196042 0.099746294 -0.05320803
0.13945977 -0.18877897 0.032337297 -0.060763516 -0.037623126 0.011531211 0.1406224 0.09782978
0.16979192 0.20937592 -0.15070604 0.005424735 0.2931799 -0.20095345 0.21922587 -0.04885428
0.08395234 0.050497297 0.28131253 0.09313776 -0.13339643 0.12898745 -0.20775396 -0.12351075
-0.147602 -0.15245216 -0.13367328 0.10903015 0.25716147 -0.06404446 -0.16999237 0.12820378
-0.2237422 -0.057722785 -0.0949147 0.048283175 -0.3183228 0.11251768 -0.055835936 0.02489774
-0.0337637 -0.17687368 0.07352617 -0.18890436 0.03912381 0.24064745 0.069847025 0.06874367
-0.007797882 -0.08579325 -0.082878955 -0.23530601 -0.090252824 -0.05062301 -0.07859846 -0.3085219
0.10890762 -0.19402573 0.13154729 0.028149525 -0.16512835 -0.028464613 0.26279953 0.07164592
-0.09287958 -0.023077635 -0.13480504 -0.0921078 0.31029508 -0.0007963178 0.091250025 -0.037013307
0.09842703 -0.19509733 -0.17149499 -0.08281911 -0.24200127 0.19607884 0.031555675 0.26288477
0.16123144 -0.2181156 -0.12128781 0.18665758 0.16757464 0.038149666 0.22280565 0.116911754
0.008896256 -0.18587662 0.03703901 0.05872028 0.071893275 0.050015837 0.01872339 -0.21418634
-0.13436386 0.1548553 -0.19058743 0.13515055 0.26832262 0.14679039 -0.010405878 0.07874565
-0.12407126 0.24276564 -0.050548643 -0.045283712 -0.086102046 0.095695764 -0.0036523882 -0.07082896
0.0594646 -0.105677314 0.098168485 0.16724917 -0.101702146 -0.0527401 -0.002166233 -0.19218172
-0.17696846 -0.205414 0.18856786 -0.1975626 -0.2822095 0.2050482 0.24550062 0.059277564
